=============== Running group_norm_l1 Model ===============
----------------------------------------------------------------
        Layer (type)               Output Shape         Param #
================================================================
            Conv2d-1            [-1, 8, 26, 26]              72
              ReLU-2            [-1, 8, 26, 26]               0
         GroupNorm-3            [-1, 8, 26, 26]              16
           Dropout-4            [-1, 8, 26, 26]               0
            Conv2d-5           [-1, 16, 24, 24]           1,152
              ReLU-6           [-1, 16, 24, 24]               0
         GroupNorm-7           [-1, 16, 24, 24]              32
           Dropout-8           [-1, 16, 24, 24]               0
         MaxPool2d-9           [-1, 16, 12, 12]               0
           Conv2d-10            [-1, 8, 12, 12]             128
           Conv2d-11           [-1, 16, 10, 10]           1,152
             ReLU-12           [-1, 16, 10, 10]               0
        GroupNorm-13           [-1, 16, 10, 10]              32
          Dropout-14           [-1, 16, 10, 10]               0
           Conv2d-15             [-1, 16, 8, 8]           2,304
             ReLU-16             [-1, 16, 8, 8]               0
        GroupNorm-17             [-1, 16, 8, 8]              32
          Dropout-18             [-1, 16, 8, 8]               0
           Conv2d-19             [-1, 16, 6, 6]           2,304
             ReLU-20             [-1, 16, 6, 6]               0
        GroupNorm-21             [-1, 16, 6, 6]              32
          Dropout-22             [-1, 16, 6, 6]               0
        AvgPool2d-23             [-1, 16, 1, 1]               0
           Conv2d-24             [-1, 16, 1, 1]             256
             ReLU-25             [-1, 16, 1, 1]               0
        GroupNorm-26             [-1, 16, 1, 1]              32
          Dropout-27             [-1, 16, 1, 1]               0
           Conv2d-28             [-1, 10, 1, 1]             160
================================================================
Total params: 7,704
Trainable params: 7,704
Non-trainable params: 0
----------------------------------------------------------------
Input size (MB): 0.00
Forward/backward pass size (MB): 0.57
Params size (MB): 0.03
Estimated Total Size (MB): 0.60
----------------------------------------------------------------
None
Epoch1 : Loss=1.0423321723937988  Accuracy=98.76 Batch_id=937: 100%|████████████████████████████████████████████████████████████████████████████████████████████████████████████| 938/938 [00:48<00:00, 19.29it/s]
…
