=============== Running layer_norm Model ===============
----------------------------------------------------------------
        Layer (type)               Output Shape         Param #
================================================================
            Conv2d-1            [-1, 8, 26, 26]              72
              ReLU-2            [-1, 8, 26, 26]               0
         LayerNorm-3            [-1, 8, 26, 26]          10,816
           Dropout-4            [-1, 8, 26, 26]               0
            Conv2d-5           [-1, 16, 24, 24]           1,152
              ReLU-6           [-1, 16, 24, 24]               0
         LayerNorm-7           [-1, 16, 24, 24]          18,432
           Dropout-8           [-1, 16, 24, 24]               0
         MaxPool2d-9           [-1, 16, 12, 12]               0
           Conv2d-10            [-1, 8, 12, 12]             128
           Conv2d-11           [-1, 16, 10, 10]           1,152
             ReLU-12           [-1, 16, 10, 10]               0
        LayerNorm-13           [-1, 16, 10, 10]           3,200
          Dropout-14           [-1, 16, 10, 10]               0
           Conv2d-15             [-1, 16, 8, 8]           2,304
             ReLU-16             [-1, 16, 8, 8]               0
        LayerNorm-17             [-1, 16, 8, 8]           2,048
          Dropout-18             [-1, 16, 8, 8]               0
           Conv2d-19             [-1, 16, 6, 6]           2,304
             ReLU-20             [-1, 16, 6, 6]               0
        LayerNorm-21             [-1, 16, 6, 6]           1,152
          Dropout-22             [-1, 16, 6, 6]               0
        AvgPool2d-23             [-1, 16, 1, 1]               0
           Conv2d-24             [-1, 16, 1, 1]             256
             ReLU-25             [-1, 16, 1, 1]               0
        LayerNorm-26             [-1, 16, 1, 1]              32
          Dropout-27             [-1, 16, 1, 1]               0
           Conv2d-28             [-1, 10, 1, 1]             160
================================================================
Total params: 43,208
Trainable params: 43,208
Non-trainable params: 0
----------------------------------------------------------------
Input size (MB): 0.00
Forward/backward pass size (MB): 0.57
Params size (MB): 0.16
Estimated Total Size (MB): 0.74
----------------------------------------------------------------
None
Epoch1 : Loss=0.4181712865829468  Accuracy=74.28 Batch_id=937: 100%|████████████████████████████████████████████████████████████████████████████████████████████████████████████| 938/938 [00:49<00:00, 18.88it/s]
…
